alphabet_detection_model/model/keypoint_classifier/keypoint_classifier.tflite (tflite, 27792 bytes, 8 tensors)

arith.constant f4 [128]
0	0xbfbb3eb7	-1.4628514
1	0xbfb0f9db	-1.382625
2	0xc00aaaf6	-2.1666846
3	0xbfafcad1	-1.373377
4	0xbfb064e8	-1.3780794
5	0xbfc72d7e	-1.5560758
6	0xbfa12008	-1.25879
7	0xbfa855b1	-1.3151151
8	0xbfdf06b3	-1.742392
9	0xbfb02a1b	-1.376285
10	0xbf9d5f1c	-1.229465
11	0xbfd68569	-1.6759464
12	0xbfe315ec	-1.7741065
13	0xbf66d821	-0.90173537
14	0xc0439624	-3.0560389
15	0xbf8641e1	-1.0488855
16	0xc024b1fa	-2.5733628
17	0xbfca109d	-1.578632
18	0xbfe286b0	-1.7697353
19	0xbfaa7918	-1.3318205
20	0xc026e2f2	-2.6076016
21	0xc01498d0	-2.321827
22	0xbfa6e866	-1.3039672
23	0xc00826b3	-2.127362
24	0xbfc9e368	-1.5772524
25	0xbffbd39c	-1.9673953
26	0xbf9d4f7f	-1.2289885
27	0xbfc6559e	-1.5494878
28	0xbfdf0da1	-1.7426034
29	0xc04d9b95	-3.212621
30	0xc02677ca	-2.6010613
31	0xbf9d435a	-1.2286179
32	0xbff07023	-1.8784221
33	0xbf8341d8	-1.0254469
34	0xc0337566	-2.8040404
35	0xbfc82c29	-1.5638477
36	0xbfcbc0f8	-1.5918264
37	0xbf9a8aa1	-1.2073556
38	0xc05fce72	-3.4969754
39	0xbfb7336d	-1.4312569
40	0xbfc4b62a	-1.5368092
41	0xbfaecf01	-1.3656923
42	0xbfd57378	-1.6675863
43	0xbfccb82e	-1.5993707
44	0xbfc3853e	-1.5275037
45	0xbf97bc3e	-1.1854322
46	0xbfa3a6af	-1.2785243
47	0xbfd6c4e8	-1.6778841
48	0xbf868146	-1.0508201
49	0xbf7ccc3b	-0.9874913
50	0xbfd0d164	-1.6313901
51	0xbfdeeea0	-1.7416573
52	0xbf8cf569	-1.1012393
53	0xc023fe34	-2.5623903
54	0xbfe067c1	-1.7531663
55	0xc000132b	-2.00117
56	0xbfd56456	-1.6671245
57	0xbfe99405	-1.8248297
58	0xbf96e169	-1.178754
59	0xbf677961	-0.90419585
60	0xc0079104	-2.118226
61	0xbfb31e17	-1.3993558
62	0xbfda2d39	-1.7045051
63	0xbfb0813d	-1.378944
64	0xbfa7f0d6	-1.3120372
65	0xbfb26614	-1.3937402
66	0xbf84dbd8	-1.0379591
67	0xbfbf5ae2	-1.494961
68	0xbfc7c9c7	-1.5608453
69	0xbfb144c8	-1.3849115
70	0xbf9d903f	-1.2309645
71	0xbfbdc55a	-1.4825852
72	0xbfa5ccbd	-1.2953106
73	0xc021a843	-2.5258949
74	0xbfe1fb66	-1.7654846
75	0xbff10f1a	-1.8832734
76	0xbf87c92e	-1.060827
77	0xbfb03b7f	-1.3768157
78	0xbff51d81	-1.9149629
79	0xc0007f63	-2.007775
80	0xc02a00c5	-2.656297
81	0xbfbdb9a8	-1.4822283
82	0xbfdaad98	-1.7084227
83	0xbfd7631d	-1.6827122
84	0xbfd5576b	-1.6667303
85	0xbf8a5056	-1.0805767
86	0xc01c61ee	-2.4434772
87	0xbf920856	-1.1408794
88	0xbfcc7100	-1.5971985
89	0xbfbdfb88	-1.4842386
90	0xbfe5cd3a	-1.7953255
91	0xbfb0cb56	-1.3812053
92	0xbfa1e04f	-1.2646579
93	0xbfc7347d	-1.5562893
94	0xc064b687	-3.5736406
95	0xbfc31b13	-1.5242637
96	0xc00c4513	-2.191716
97	0xbfa33e51	-1.2753392
98	0xbf275ad6	-0.6537298
99	0xbfbf3f3d	-1.4941174
100	0xbf9ecbc9	-1.240594
101	0xbfce14ac	-1.6100059
102	0xc005efd6	-2.0927634
103	0xbfadd552	-1.3580725
104	0xbfbb77ec	-1.4645972
105	0xc0080b4f	-2.1256902
106	0xbf9d1a6f	-1.2273692
107	0xbf7b2e40	-0.98117447
108	0xc0116e0a	-2.2723413
109	0xbf8b43f9	-1.0880119
110	0xbfae377f	-1.3610686
111	0xc06a228f	-3.6583593
112	0xbfb7fb33	-1.4373535
113	0xbf93075f	-1.1486624
114	0xbfe09ec3	-1.754845
115	0xbfe27d7c	-1.7694545
116	0xbf9cf9ef	-1.2263774
117	0xbfc99720	-1.5749245
118	0xbfc44ded	-1.5336281
119	0xbfa9afcd	-1.3256775
120	0xbfc7baa5	-1.5603834
121	0xc009b616	-2.1517386
122	0xc00279e8	-2.0386906
123	0xbfcc42de	-1.5957906
124	0xbfc67a35	-1.5506045
125	0xbfdb6e95	-1.7143122
126	0xbfa84773	-1.3146805
127	0xc04af64b	-3.1712825

arith.constant1 f4 [64]
0	0xbd3104a7	-0.043217327
1	0x3de7b58b	0.113139234
2	0xbcc0b10e	-0.023521926
3	0x3d621892	0.055199213
4	0xbcd33154	-0.025780357
5	0x3e485b42	0.19566062
6	0x3e6d025d	0.23145433
7	0x3d447834	0.047966197
8	0xbcc38234	-0.023865797
9	0x3cbe9c3d	0.02326786
10	0x3d22ceef	0.03974813
11	0xbd639a83	-0.055567276
12	0x3cc25975	0.023724297
13	0xbdcf3701	-0.10117913
14	0xbdcc031d	-0.09961531
15	0x3db39e0a	0.08770378
16	0xbe3425f1	-0.17592598
17	0xbd919586	-0.071085975
18	0x3d63a702	0.055579193
19	0xbd28ac7f	-0.04118013
20	0x3d27c8a0	0.040962815
21	0xbb7795ef	-0.0037778576
22	0x3e5aaab7	0.21354185
23	0x3d915c53	0.070976876
24	0xbda92abe	-0.082601056
25	0x3e5fde22	0.2186208
26	0x3d8c8835	0.06861917
27	0xbce9814e	-0.02850404
28	0x3e67b205	0.22626503
29	0xbd60c419	-0.054874513
30	0xbddc3d99	-0.10753936
31	0x3d6133ce	0.054981045
32	0xbb93f569	-0.004515339
33	0x3d85db8f	0.06536018
34	0x3e1284cd	0.14308472
35	0x3c73e780	0.014886737
36	0xbd6f217d	-0.058381546
37	0x3d36e2b7	0.044649806
38	0xbd92a35e	-0.07160066
39	0xbd68733e	-0.05675053
40	0xbbf7c975	-0.0075618573
41	0xbdd47adc	-0.10374996
42	0x3d9d96ee	0.07694803
43	0x3cf957eb	0.03043743
44	0xbab37454	-0.0013691285
45	0xbc51f95c	-0.0128158
46	0xbd1e12b6	-0.038592063
47	0xbc1bc386	-0.009507066
48	0x3d836dc9	0.06417424
49	0xbe44aa5a	-0.19205609
50	0xbd0f3fd9	-0.034973
51	0xbdf5f94b	-0.120104395
52	0xbc90d897	-0.017681403
53	0xbd8eec8b	-0.06978711
54	0xbd904e9a	-0.07046242
55	0x3da485c6	0.08033328
56	0xbd6b2359	-0.057406757
57	0x3cc721f7	0.024308188
58	0xbdf14296	-0.117802784
59	0x3d6c9018	0.057754606
60	0xbcfddae0	-0.030988157
61	0x3d2e7b76	0.04259821
62	0x3d7bc768	0.061469465
63	0xbd7f5c72	-0.062344022

arith.constant2 f4 [32]
0	0x3ef7a7eb	0.483703
1	0x3f49d1db	0.7883584
2	0x3ed8e4a5	0.42361942
3	0x3f28be4a	0.6591536
4	0x3e8385b0	0.25687933
5	0x3f0f59f0	0.5599661
6	0x3f57407a	0.8408276
7	0x3f8b57fe	1.0886228
8	0x3f671956	0.90273035
9	0x3f464e6d	0.7746342
10	0x3f3fe9d0	0.74966145
11	0x3f03d942	0.51503384
12	0x3f2b52db	0.669233
13	0x3f221fad	0.63329583
14	0x3f5c5fed	0.8608387
15	0x3f288fea	0.65844595
16	0x3ea0da72	0.3141666
17	0x3f0833f2	0.5320426
18	0x3e4ae167	0.19812547
19	0x3f08c1c7	0.5342068
20	0x3f0aaa81	0.5416642
21	0x3f116451	0.56793696
22	0x3f5f7a2c	0.87295794
23	0x3f290fc7	0.660397
24	0x3f53412b	0.82521313
25	0x3eff8f51	0.4991403
26	0x3f253f4e	0.6454972
27	0xbda82535	-0.08210222
28	0x3f8351ad	1.02593
29	0x3f4161c9	0.75539833
30	0x3f37e8ec	0.71839786
31	0x3ebb6f91	0.36608556

arith.constant3 f4 [26]
0	0xbd81035f	-0.06299471
1	0xbde9e2b4	-0.11420193
2	0xbd9d1004	-0.0766907
3	0xbe8d6bfa	-0.27621442
4	0x3e81fdf4	0.25389063
5	0x3d32a065	0.043609995
6	0x3ed18a7d	0.4092597
7	0x3d96d131	0.07364119
8	0xbe54feb9	-0.20800294
9	0xbdc05d9e	-0.09392856
10	0x3d857c20	0.065178156
11	0x3d7d32a3	0.06181587
12	0xbeca634b	-0.3952888
13	0x3ce0f0c8	0.027458563
14	0x3e5fe8d0	0.21866155
15	0x3ea8c471	0.32962373
16	0x3ec0b2e0	0.3763647
17	0x3ea240c7	0.31690046
18	0xbec7d5c4	-0.39030278
19	0xbf11a013	-0.5688488
20	0x3eb506a6	0.35356635
21	0x3d78fbda	0.06078706
22	0xbf091f57	-0.53563446
23	0x3e4d2ec9	0.20037378
24	0xbe4e887b	-0.2016925
25	0x3eae6663	0.3406249

arith.constant5 f4 [26, 32]
0	0x3fbfae93	1.4975151
1	0x3f396340	0.7241707
2	0xc0111c48	-2.2673512
3	0xbf890340	-1.0704117
4	0xc060f2fb	-3.5148304
5	0xbf9130e7	-1.1343049
6	0x3eb7930e	0.3585438
7	0xbf454219	-0.7705398
8	0xbf547fdc	-0.830076
9	0xbf361300	-0.7112274
10	0x3eb65ec1	0.35619166
11	0xc004e667	-2.0765626
12	0xbf323d0c	-0.696244
13	0x3f9db6c2	1.2321398
14	0xbea8f64e	-0.33000416
15	0xbdc0c11b	-0.09411832
16	0xbeeb3fed	-0.4594721
17	0x403ecd10	2.981266
18	0xc0f7ff34	-7.7499027
19	0x3e16e92e	0.14737388
20	0x3f818267	1.0117921
21	0xbf727c43	-0.9472086
22	0xbe37b25f	-0.17939137
23	0xbcceccd8	-0.025244161
24	0x3f7f969f	0.99839205
25	0xc01c0063	-2.4375236
26	0x3f869755	1.0514933
27	0xbf2293fa	-0.63507044
28	0xbffaa73f	-1.958229
29	0x3f140f8e	0.57836235
30	0xbeefd3c5	-0.46841255
31	0xc075f06f	-3.8428
32	0x4028f02e	2.6396594
33	0xbfcdfdfa	-1.6093132
34	0x3f901783	1.1257175
35	0x3f0037a5	0.50084907
36	0xbfbd3f25	-1.4784895
37	0x3f8a4da0	1.0804939
38	0xbfdf5b7f	-1.7449797
39	0xbe61f2da	-0.22065297
40	0xbf383498	-0.7195525
41	0xbfa11d2e	-1.258703
42	0x3f3b2e7a	0.7311779
43	0x3f5f7185	0.8728259
44	0xc02bf22c	-2.686656
45	0xc052efbe	-3.2958827
46	0xbfe7e861	-1.8117791
47	0xc075005c	-3.828147
48	0x3f73ef80	0.95287323
49	0xbf71ba94	-0.9442532
50	0xbf5c6425	-0.8609031
51	0x3ee70e07	0.4512789
52	0xc00534e6	-2.0813537
53	0x4031d6eb	2.7787426
54	0x3fb7cb35	1.4358889
55	0xbef73526	-0.48282737
56	0xc046f869	-3.1089118
57	0x403620e1	2.8457568
58	0x3ebff5e3	0.37492284
59	0xc0dca6ea	-6.8953753
60	0x3eb1d181	0.3473015
61	0xbd83eecd	-0.06442032
62	0xbf85e99d	-1.0461918
63	0x3fa7f14f	1.3120517
64	0xc08e7765	-4.4520745
65	0x3f3a6419	0.72808987
66	0xc033da64	-2.8102045
67	0x3fc9a953	1.5754799
68	0xbf6981ce	-0.9121369
69	0x40198f23	2.3993614
70	0xc03c35f1	-2.9407923
71	0x3ed88ccd	0.42294922
72	0x3fdf2925	1.7434431
73	0x3faf2592	1.368334
74	0xc058ac84	-3.3855295
75	0x3ee5c6e2	0.44878298
76	0x3e84f459	0.25967672
77	0xc01db29d	-2.4640267
78	0xc03af0ab	-2.9209392
79	0x3f017ea2	0.5058385
80	0xbfd675c3	-1.6754688
81	0xc00100ae	-2.0156665
82	0xc012bbcc	-2.2927122
83	0x3fe5ea07	1.7962044
84	0xc0163656	-2.3470664
85	0x4030bba1	2.761452
86	0xbfc3ade9	-1.5287448
87	0x3f2970c0	0.6618767
88	0xbfd21d56	-1.6415203
89	0x404a10da	3.1572785
90	0xc0235f0b	-2.552676
91	0xc042758e	-3.038425
92	0xbdc76c53	-0.09737458
93	0xbf556b62	-0.8336698
94	0xbf469640	-0.77573013
95	0xbfa5b598	-1.2946043
96	0xbf2e7654	-0.68149304
97	0xbf801b13	-1.0008262
98	0x3fc9502b	1.572759
99	0x3f223abf	0.6337089
100	0x3ed57ea3	0.4169818
101	0x3f1d239d	0.61382467
102	0x3f0e6381	0.5562058
103	0x3e9825b3	0.29716262
104	0xbe12c23d	-0.14331909
105	0x3f22a738	0.63536406
106	0x3f8008c0	1.000267
107	0xbf0bfcb1	-0.5468245
108	0x3fb821e2	1.438534
109	0xbed71104	-0.4200517
110	0xbfc0f056	-1.5073345
111	0x3f5da403	0.8657839
112	0x3fb54239	1.4160835
113	0xbf6cc034	-0.9248078
114	0x3e337ec4	0.17528826
115	0x3f29837e	0.66216266
116	0xbde58afb	-0.11208149
117	0x3fbf4694	1.4943414
118	0xc0b10161	-5.5314183
119	0x3f26fc7e	0.6522902
120	0xc00f9136	-2.243238
121	0xbde7ccd1	-0.113183625
122	0xc002e99c	-2.0455084
123	0xc0d6e3f3	-6.715326
124	0xbf4bfa81	-0.79679114
125	0xc0641c53	-3.5642288
126	0xbeb277f3	-0.3485714
127	0x3f048c97	0.51777023
128	0x3fdce100	1.7256165
129	0xbe9aa9c2	-0.3020764
130	0x3ed30b4c	0.41219556
131	0xc02b2e52	-2.6747022
132	0x3ff5f1fa	1.921447
133	0x3f4b4d98	0.79415274
134	0xbf9a1c53	-1.2039894
135	0xbd8c30cf	-0.06845247
136	0x3eaf1e9b	0.34203038
137	0xbffc49ab	-1.9709982
138	0x3ea98fc0	0.33117485
139	0x3ff048b0	1.8772182
140	0x3f16dd6a	0.589316
141	0xc07204e1	-3.7815478
142	0x3f0bf83b	0.54675645
143	0xbede5f32	-0.43432003
144	0xbf7d731e	-0.9900378
145	0xc006d0e8	-2.1065006
146	0x3f16b39f	0.5886783
147	0x3f8ff1bc	1.1245646
148	0xbf244b94	-0.64177823
149	0x40203fe9	2.5039008
150	0xbf387685	-0.72055846
151	0x3ebed12e	0.37268966
152	0xc054c144	-3.324296
153	0xc0b9a691	-5.801583
154	0xbf0ac2bb	-0.54203385
155	0xc0add1ce	-5.431861
156	0x3e9a483a	0.3013323
157	0x3fcf45db	1.6193193
158	0x3f8be1d8	1.0928297
159	0xc06fa186	-3.7442336
160	0x4006ec8e	2.1081882
161	0x3d6673b4	0.056262687
162	0xbe9696c2	-0.29411894
163	0x3e754159	0.2395071
164	0x3f9a2a16	1.2044094
165	0x3fd3420f	1.6504534
166	0xc0862bd1	-4.1928487
167	0xc0329351	-2.7902415
168	0xbf8d8ffe	-1.1059568
169	0x3feb7bdf	1.8397177
170	0xc054f650	-3.3275337
171	0xbf4889ec	-0.7833545
172	0xbf6b512e	-0.91920745
173	0xc08af297	-4.342113
174	0x3f725bc0	0.9467125
175	0xbfcae2a7	-1.5850419
176	0xbf4f2982	-0.8092271
177	0x3f794e71	0.9738532
178	0xc0396727	-2.896921
179	0xbe17002d	-0.14746161
180	0xbfe9805e	-1.82423
181	0xc0633815	-3.550298
182	0x3e91dcf3	0.28488883
183	0x400d0107	2.2031877
184	0xc0136746	-2.3031783
185	0x40022309	2.0333884
186	0x3f48306d	0.7819889
187	0xc0097575	-2.147794
188	0x3fd66f18	1.6752653
189	0x40057390	2.0851784
190	0x3f51e342	0.8198739
191	0xbf8d3665	-1.1032225
192	0xc0837995	-4.1085916
193	0xbf2428aa	-0.6412455
194	0xbf18b907	-0.5965733
195	0xbf5c99fd	-0.8617247
196	0x401cee4b	2.4520442
197	0xbc0959e7	-0.008383251
198	0x3fa03e11	1.2518941
199	0x3f86f8e2	1.0544703
200	0x3f209ac3	0.6273615
201	0x3f31a3fe	0.6939086
202	0xc00a7491	-2.1633646
203	0xc0720514	-3.78156
204	0xc020df22	-2.513619
205	0x400549e9	2.082636
206	0x3f19b815	0.6004651
207	0x3e2856b0	0.16439319
208	0x3fc0f254	1.5073953
209	0x3e97f8c5	0.29681984
210	0xc08fa521	-4.4889073
211	0xbfc7b789	-1.5602885
212	0x3f3e544d	0.7434738
213	0xbed6eceb	-0.4197763
214	0xc059d63f	-3.4037015
215	0x3e278fdb	0.1636347
216	0x3fb2526c	1.3931403
217	0xbda3e15a	-0.08001967
218	0xbf362ee9	-0.7116533
219	0x3f6dae80	0.9284439
220	0xbf3bd61b	-0.73373574
221	0xbf81b596	-1.0133541
222	0xbd2401d0	-0.04004079
223	0xc019f086	-2.4053054
224	0xc082c36c	-4.086355
225	0x3e5cfff3	0.21582012
226	0xc0530b2d	-3.297557
227	0xc06c6870	-3.6938744
228	0x3fa4ef37	1.2885503
229	0x3f12944d	0.5725754
230	0x3f5ab93e	0.8543891
231	0x3dd500fd	0.10400579
232	0x3ebd72da	0.37001687
233	0x4000b50c	2.0110502
234	0xc0d7da22	-6.7453775
235	0xbe99a224	-0.30006516
236	0xc05337b1	-3.3002741
237	0x3e89db5f	0.2692518
238	0x3fbea785	1.4894873
239	0x3df02294	0.11725345
240	0xc00fa46c	-2.2444105
241	0xbedcba2a	-0.43110782
242	0x3f855c7c	1.0418849
243	0x3f8e3c78	1.1112204
244	0x3f211f8e	0.62938774
245	0x3fe30e08	1.7738657
246	0xbee2422b	-0.44191107
247	0x3fb83627	1.4391526
248	0x3e6c2839	0.23062219
249	0x3f92cc46	1.1468589
250	0xc02355bd	-2.552108
251	0x40415915	3.0210621
252	0xc00875b8	-2.132185
253	0x3e835acd	0.25655213
254	0xbef3f8d6	-0.47650784
255	0x3fffcc46	1.9984214

tfl.pseudo_qconst i1 [32, 64]
0	0x02	2
1	0x04	4
2	0x13	19
3	0x6c	108
4	0x0b	11
5	0xe9	-23
6	0xdd	-35
7	0xd3	-45
8	0xf7	-9
9	0x07	7
10	0xd8	-40
11	0xf6	-10
12	0xe1	-31
13	0xff	-1
14	0xba	-70
15	0x95	-107
16	0x7d	125
17	0xe5	-27
18	0xce	-50
19	0x12	18
20	0xd8	-40
21	0xef	-17
22	0xd8	-40
23	0x23	35
24	0x29	41
25	0xd9	-39
26	0xc0	-64
27	0x13	19
28	0xda	-38
29	0x38	56
30	0x2a	42
31	0xf9	-7
32	0xb7	-73
33	0x47	71
34	0xf4	-12
35	0xed	-19
36	0xfc	-4
37	0x23	35
38	0xf8	-8
39	0x16	22
40	0x1f	31
41	0xf1	-15
42	0x61	97
43	0xc5	-59
44	0xd0	-48
45	0x1b	27
46	0x29	41
47	0x20	32
48	0x4b	75
49	0x7f	127
50	0xa8	-88
51	0x44	68
52	0x12	18
53	0x05	5
54	0xed	-19
55	0x27	39
56	0x15	21
57	0x75	117
58	0x4a	74
59	0x12	18
60	0x07	7
61	0xdb	-37
62	0xf7	-9
63	0xf9	-7
64	0x38	56
65	0x0d	13
66	0xf6	-10
67	0x17	23
68	0xf3	-13
69	0xc7	-57
70	0xc3	-61
71	0xfe	-2
72	0x22	34
73	0x18	24
74	0x01	1
75	0xd7	-41
76	0x05	5
77	0xa3	-93
78	0x96	-106
79	0xbd	-67
80	0x31	49
81	0xe5	-27
82	0x81	-127
83	0x14	20
84	0x16	22
85	0x20	32
86	0xb7	-73
87	0xda	-38
88	0x0f	15
89	0xae	-82
90	0xf9	-7
91	0xec	-20
92	0xb3	-77
93	0x67	103
94	0xc6	-58
95	0x38	56
96	0xf4	-12
97	0xca	-54
98	0x28	40
99	0x6b	107
100	0x37	55
101	0x3a	58
102	0x0e	14
103	0xec	-20
104	0x24	36
105	0xdb	-37
106	0xd5	-43
107	0xc4	-60
108	0xcf	-49
109	0xfc	-4
110	0x20	32
111	0xff	-1
112	0xf1	-15
113	0x4e	78
114	0xe9	-23
115	0x19	25
116	0x03	3
117	0x0d	13
118	0x1e	30
119	0xdd	-35
120	0xdc	-36
121	0xfe	-2
122	0x5b	91
123	0xf4	-12
124	0xe4	-28
125	0x14	20
126	0x34	52
127	0xf5	-11
128	0x58	88
129	0xda	-38
130	0x5a	90
131	0x43	67
132	0x45	69
133	0xf6	-10
134	0xf7	-9
135	0xee	-18
136	0x15	21
137	0x12	18
138	0xe9	-23
139	0xdc	-36
140	0xed	-19
141	0x4d	77
142	0x53	83
143	0xf7	-9
144	0x26	38
145	0x12	18
146	0x1e	30
147	0xfd	-3
148	0xec	-20
149	0x1a	26
150	0xf4	-12
151	0x35	53
152	0xf7	-9
153	0xf0	-16
154	0xdd	-35
155	0x18	24
156	0xfe	-2
157	0xdf	-33
158	0x1f	31
159	0x0b	11
160	0xec	-20
161	0x3b	59
162	0xca	-54
163	0x27	39
164	0x4d	77
165	0x0d	13
166	0xcf	-49
167	0x01	1
168	0x43	67
169	0xea	-22
170	0xea	-22
171	0x1a	26
172	0xde	-34
173	0x62	98
174	0xfd	-3
175	0xe8	-24
176	0xea	-22
177	0x16	22
178	0x81	-127
179	0xf6	-10
180	0x5f	95
181	0x17	23
182	0x0e	14
183	0x24	36
184	0x11	17
185	0x5d	93
186	0xe0	-32
187	0x2a	42
188	0x0e	14
189	0xe7	-25
190	0x05	5
191	0x17	23
192	0xf4	-12
193	0xfe	-2
194	0x02	2
195	0xfb	-5
196	0xfd	-3
197	0xf3	-13
198	0xf4	-12
199	0xf2	-14
200	0x07	7
201	0x01	1
202	0xf4	-12
203	0xf6	-10
204	0xf6	-10
205	0xdd	-35
206	0xd9	-39
207	0x07	7
208	0xf0	-16
209	0x52	82
210	0x33	51
211	0x14	20
212	0xf7	-9
213	0x00	0
214	0xf5	-11
215	0xde	-34
216	0xb3	-77
217	0xfc	-4
218	0xde	-34
219	0x3f	63
220	0xf7	-9
221	0x39	57
222	0x00	0
223	0x17	23
224	0x8a	-118
225	0x0f	15
226	0xdc	-36
227	0x22	34
228	0xe9	-23
229	0x1c	28
230	0xee	-18
231	0x18	24
232	0x4c	76
233	0xa2	-94
234	0x20	32
235	0x16	22
236	0xc4	-60
237	0x04	4
238	0xda	-38
239	0xbf	-65
240	0x12	18
241	0xea	-22
242	0x0d	13
243	0xd4	-44
244	0xf3	-13
245	0x71	113
246	0x6b	107
247	0xc9	-55
248	0x3a	58
249	0xe8	-24
250	0xb8	-72
251	0xd1	-47
252	0x3c	60
253	0xfd	-3
254	0x13	19
255	0x7f	127

tfl.pseudo_qconst1 i1 [64, 128]
0	0xaf	-81
1	0x04	4
2	0x04	4
3	0xf8	-8
4	0x0f	15
5	0x1a	26
6	0xc1	-63
7	0x89	-119
8	0x10	16
9	0xfa	-6
10	0x81	-127
11	0x0d	13
12	0xf6	-10
13	0x07	7
14	0x10	16
15	0xfc	-4
16	0x0e	14
17	0xdd	-35
18	0x00	0
19	0xe8	-24
20	0x1e	30
21	0x01	1
22	0x0d	13
23	0x24	36
24	0xfe	-2
25	0x0c	12
26	0x06	6
27	0x1e	30
28	0xf5	-11
29	0x1a	26
30	0x09	9
31	0x00	0
32	0x0b	11
33	0xf4	-12
34	0xf5	-11
35	0xfe	-2
36	0x11	17
37	0xb9	-71
38	0x21	33
39	0xd6	-42
40	0x0e	14
41	0xf6	-10
42	0x07	7
43	0x11	17
44	0xee	-18
45	0xe2	-30
46	0x0b	11
47	0x21	33
48	0xe4	-28
49	0x05	5
50	0xee	-18
51	0xff	-1
52	0xfa	-6
53	0x0d	13
54	0x18	24
55	0xed	-19
56	0xf9	-7
57	0x18	24
58	0x09	9
59	0x9e	-98
60	0x16	22
61	0xdc	-36
62	0x14	20
63	0x10	16
64	0x03	3
65	0x0d	13
66	0xff	-1
67	0xfa	-6
68	0xfb	-5
69	0x0f	15
70	0x05	5
71	0x04	4
72	0xe5	-27
73	0x12	18
74	0xcb	-53
75	0x0b	11
76	0x03	3
77	0x0b	11
78	0xe0	-32
79	0xe9	-23
80	0xed	-19
81	0xfe	-2
82	0x05	5
83	0xd8	-40
84	0x22	34
85	0x00	0
86	0x0e	14
87	0xd6	-42
88	0xde	-34
89	0x12	18
90	0x07	7
91	0x00	0
92	0xf7	-9
93	0x0c	12
94	0x06	6
95	0x0f	15
96	0x0f	15
97	0x0f	15
98	0x04	4
99	0x13	19
100	0xfb	-5
101	0xfa	-6
102	0xe4	-28
103	0x1c	28
104	0x11	17
105	0x0f	15
106	0xf6	-10
107	0xfa	-6
108	0xf9	-7
109	0x25	37
110	0x02	2
111	0x02	2
112	0xeb	-21
113	0x08	8
114	0xfb	-5
115	0xf4	-12
116	0x02	2
117	0xfb	-5
118	0x14	20
119	0x08	8
120	0x0d	13
121	0x04	4
122	0xe3	-29
123	0xfc	-4
124	0x00	0
125	0x03	3
126	0xfe	-2
127	0x05	5
128	0x0a	10
129	0xe8	-24
130	0x07	7
131	0x13	19
132	0x38	56
133	0x1b	27
134	0x1f	31
135	0xde	-34
136	0x20	32
137	0x2a	42
138	0xf8	-8
139	0x18	24
140	0x29	41
141	0xeb	-21
142	0xea	-22
143	0x04	4
144	0xda	-38
145	0x25	37
146	0x26	38
147	0x36	54
148	0xd1	-47
149	0xf6	-10
150	0x1f	31
151	0xb3	-77
152	0x20	32
153	0x01	1
154	0x84	-124
155	0xf7	-9
156	0x05	5
157	0xfd	-3
158	0x5f	95
159	0x01	1
160	0x0a	10
161	0xf5	-11
162	0x16	22
163	0xe7	-25
164	0xf1	-15
165	0x3a	58
166	0x12	18
167	0x16	22
168	0x3e	62
169	0xb2	-78
170	0x1d	29
171	0xd9	-39
172	0x43	67
173	0xfd	-3
174	0xe2	-30
175	0x2c	44
176	0x05	5
177	0xfc	-4
178	0xc0	-64
179	0x00	0
180	0xf0	-16
181	0xe0	-32
182	0x0a	10
183	0xeb	-21
184	0x1b	27
185	0x37	55
186	0x12	18
187	0xf1	-15
188	0xe9	-23
189	0xde	-34
190	0xed	-19
191	0x17	23
192	0xf2	-14
193	0x0b	11
194	0xe2	-30
195	0x3a	58
196	0xfe	-2
197	0x95	-107
198	0x24	36
199	0x06	6
200	0x03	3
201	0x4a	74
202	0x11	17
203	0xf1	-15
204	0xee	-18
205	0xb7	-73
206	0x0d	13
207	0xd6	-42
208	0xde	-34
209	0x09	9
210	0x99	-103
211	0x49	73
212	0x28	40
213	0xf2	-14
214	0x44	68
215	0xef	-17
216	0x1f	31
217	0x1b	27
218	0x11	17
219	0xd2	-46
220	0x23	35
221	0x07	7
222	0xf5	-11
223	0xd9	-39
224	0x0d	13
225	0x26	38
226	0xfc	-4
227	0xe7	-25
228	0xfe	-2
229	0x28	40
230	0x1d	29
231	0x9b	-101
232	0xe7	-25
233	0x0d	13
234	0x1d	29
235	0xef	-17
236	0xeb	-21
237	0x27	39
238	0xfe	-2
239	0xe6	-26
240	0xfd	-3
241	0xe1	-31
242	0x21	33
243	0xf2	-14
244	0x0e	14
245	0xf6	-10
246	0xee	-18
247	0x81	-127
248	0x0d	13
249	0xe3	-29
250	0xda	-38
251	0x03	3
252	0x14	20
253	0xe3	-29
254	0x03	3
255	0xed	-19

sequential_1_1/batch_normalization_1_1/batchnorm/mul_1;sequential_1_1/batch_normalization_1_1/batchnorm/add_1;sequential_1_1/dense_4_1/MatMul;sequential_1_1/dense_4_1/BiasAdd i1 [128, 42]
0	0x00	0
1	0x00	0
2	0xff	-1
3	0x2d	45
4	0xe3	-29
5	0x00	0
6	0xef	-17
7	0xfb	-5
8	0x0d	13
9	0x00	0
10	0xeb	-21
11	0x7f	127
12	0x0e	14
13	0x00	0
14	0xfb	-5
15	0xfe	-2
16	0xe7	-25
17	0xb1	-79
18	0x00	0
19	0x45	69
20	0x1d	29
21	0x00	0
22	0x06	6
23	0xff	-1
24	0x06	6
25	0xbd	-67
26	0xf1	-15
27	0x22	34
28	0x15	21
29	0x00	0
30	0x00	0
31	0xe9	-23
32	0xc1	-63
33	0xa6	-90
34	0xd6	-42
35	0x41	65
36	0x03	3
37	0x00	0
38	0x00	0
39	0x04	4
40	0xe4	-28
41	0xe8	-24
42	0x00	0
43	0x00	0
44	0x03	3
45	0x7f	127
46	0x06	6
47	0x00	0
48	0x08	8
49	0xfa	-6
50	0xec	-20
51	0xa5	-91
52	0xfb	-5
53	0x44	68
54	0x04	4
55	0x00	0
56	0x0a	10
57	0x01	1
58	0x0f	15
59	0x04	4
60	0x00	0
61	0x16	22
62	0x04	4
63	0x00	0
64	0x01	1
65	0x00	0
66	0xfd	-3
67	0x04	4
68	0xf9	-7
69	0x06	6
70	0xff	-1
71	0x00	0
72	0x00	0
73	0xfa	-6
74	0x00	0
75	0xfe	-2
76	0xfa	-6
77	0x00	0
78	0xff	-1
79	0x00	0
80	0x00	0
81	0xfc	-4
82	0x03	3
83	0xf5	-11
84	0x00	0
85	0x00	0
86	0x12	18
87	0x6b	107
88	0x28	40
89	0x00	0
90	0xfd	-3
91	0x06	6
92	0x82	-126
93	0x4a	74
94	0x46	70
95	0xbf	-65
96	0x28	40
97	0x00	0
98	0xff	-1
99	0x01	1
100	0xdb	-37
101	0x23	35
102	0x00	0
103	0xe1	-31
104	0x36	54
105	0x00	0
106	0x16	22
107	0xfd	-3
108	0x7f	127
109	0x9e	-98
110	0x0c	12
111	0xf6	-10
112	0xf7	-9
113	0x00	0
114	0x00	0
115	0xe8	-24
116	0x30	48
117	0xab	-85
118	0x13	19
119	0x0a	10
120	0xea	-22
121	0x00	0
122	0x00	0
123	0x11	17
124	0xdd	-35
125	0x25	37
126	0x00	0
127	0x00	0
128	0xe2	-30
129	0x3f	63
130	0xd1	-47
131	0x00	0
132	0xf1	-15
133	0xfa	-6
134	0x0a	10
135	0x2b	43
136	0x04	4
137	0xce	-50
138	0x21	33
139	0x00	0
140	0xf0	-16
141	0x06	6
142	0xe4	-28
143	0x5c	92
144	0x00	0
145	0xd6	-42
146	0x27	39
147	0x00	0
148	0x09	9
149	0xfc	-4
150	0x7c	124
151	0x81	-127
152	0xfd	-3
153	0xed	-19
154	0xf9	-7
155	0x00	0
156	0x00	0
157	0xe3	-29
158	0xfd	-3
159	0x9e	-98
160	0x1d	29
161	0xf7	-9
162	0xf4	-12
163	0x00	0
164	0x00	0
165	0x19	25
166	0xbb	-69
167	0x44	68
168	0x00	0
169	0x00	0
170	0xec	-20
171	0x18	24
172	0xf8	-8
173	0x00	0
174	0x0f	15
175	0xed	-19
176	0xea	-22
177	0x81	-127
178	0x02	2
179	0xd5	-43
180	0x0d	13
181	0x00	0
182	0xff	-1
183	0xfd	-3
184	0xf0	-16
185	0xc6	-58
186	0x00	0
187	0xe6	-26
188	0x10	16
189	0x00	0
190	0x09	9
191	0x01	1
192	0x18	24
193	0xba	-70
194	0x01	1
195	0xfa	-6
196	0x12	18
197	0x00	0
198	0x00	0
199	0x50	80
200	0x02	2
201	0x40	64
202	0x14	20
203	0xfd	-3
204	0x02	2
205	0x00	0
206	0x00	0
207	0x24	36
208	0xe2	-30
209	0x5c	92
210	0x00	0
211	0x00	0
212	0xe5	-27
213	0x58	88
214	0x11	17
215	0x00	0
216	0x19	25
217	0xf4	-12
218	0xec	-20
219	0x81	-127
220	0xfc	-4
221	0xe4	-28
222	0xf5	-11
223	0x00	0
224	0xfc	-4
225	0xfb	-5
226	0xfa	-6
227	0xac	-84
228	0x00	0
229	0xf7	-9
230	0x09	9
231	0x00	0
232	0x03	3
233	0x03	3
234	0x03	3
235	0x03	3
236	0x0d	13
237	0xff	-1
238	0x18	24
239	0x00	0
240	0x00	0
241	0x35	53
242	0xf3	-13
243	0x2e	46
244	0x0d	13
245	0x02	2
246	0xfe	-2
247	0x00	0
248	0x00	0
249	0x14	20
250	0xfd	-3
251	0x3b	59
252	0x00	0
253	0x00	0
254	0x0e	14
255	0xdf	-33
